models/mlp_bike_demand.pt (torch, 14965 bytes, 5 tensors)

model.0.weight f4 [64, 12]
00000000: ff7e 0440 0425 a93f ef46 62bf 44da 29be
00000010: b639 013f ed79 85c0 adaf 9ebf 3134 1d3e
00000020: 2222 2e3e e5b9 c33d e27a 413e 2410 953e
00000030: 24d0 f13f caaa 813f 3bd4 4dbf 1543 eb3e
00000040: 6fc3 ab3e aa11 fdc0 c94f a8bf fe49 4ebe
00000050: a801 a63d 7146 a83e 1007 84bc d9f9 43be
00000060: e7cd 8e3f 371b 0240 d2f6 9abf 05fb 433d
00000070: 5ddb 133a f633 3ec1 5eb7 7cbf 4ba2 febe
00000080: b0ae 94be 387c 1e3f 7fb6 4a3f b04f 2cbe
00000090: 68fa 2b40 48c1 5a3f 9035 5abe 6f4b 183e
000000a0: 1f8a 913e 270d efc0 45d8 c3bf b3ac b9be
000000b0: 51b8 81be c150 a43c c31a 0fbe 16ad 4abe
000000c0: 7ff1 fe3f 34c6 493f 4ebc 643e 53a8 073f
000000d0: 553b f83e 932c 07c1 bcc0 65bf e523 cd3e
000000e0: 629e b3be ec36 783f 6789 f63e da33 033e
000000f0: 1e8c 783f 68d5 f63f 5e74 8dbf c9b0 7c3e
00000100: 02b1 6fbd 7882 2dc1 774a debf 3232 7abe
00000110: 92fa 5bbe 1297 193e ef08 583f 8491 d9bc
00000120: 1c29 5340 9fb4 113f 424d 26bf 4210 e13d
00000130: 2392 023e 4916 0dc0 472e e3bf 0352 94bd
00000140: 137d 453f bfbd 3cbe 0f4f acbe d56b 663f
00000150: 7b98 373f 9a00 f43f 2eed 80bf fd30 523d
00000160: fcdb f5bd 4d33 3cc1 77eb 77bf 94e7 bdbe
00000170: d058 283e 3eba b53e 6f61 303f 20c3 01be
00000180: 9dff ee3f e2c4 943f 4f07 d3be 2dc0 b43e
00000190: e3f8 c43c 9c7c 1bc1 7322 e7bf 083e c4bd
000001a0: 548f 993d e338 013f 9a33 d63d 0665 c43e
000001b0: d21b 9c3f 3b45 c33f 734d 60bf 63a7 67bd
000001c0: b636 ad3c 3cf8 2ec1 6de2 80bf 5360 a6bd
000001d0: 3b7c 2d3e 0fc6 133e 13e3 383f 6b7e 9a3e
000001e0: 59cc 3040 383b 233f 02ee 7cbf 83c9 403e
000001f0: abd2 483e f8b7 45c0 2e63 0ac0 b7c0 efbd
00000200: 9423 fb3e 01a3 e2ba 3529 813c ee48 bd3e
00000210: bac6 0f40 4bdf 3d3f 7d52 16bf 66e2 5d3e
00000220: d411 d13d f4f4 19c1 6ec1 04c0 d258 8c3c
00000230: da90 b4bd 0738 ca3e a748 bf3d 8718 2e3e
00000240: 5fea c23f 51ac f83f 7c13 9bbf db34 53be
00000250: f22a 653d bd6c 34c1 0907 f0bf d4fc 02bf
00000260: 32ce 92be cb89 fe3e 0cde 4d3f 7a50 d9be
00000270: 1649 0540 e158 803f c395 6abe 891b 983e
00000280: 9f32 3a3e 030a 25c1 a2b0 23c0 0579 88bc
00000290: 81f2 d0bd 6eff ff3e 87e4 123e a0b3 af3e
000002a0: fb4e ed3e 4d79 d43f 5321 a1bf 20df 7c3e
000002b0: 7a95 dd3d 464c 3ec1 ee21 6dbf 2cea 39bf
000002c0: db69 4dbd 1317 3e3f 691c 373f 9919 283c
000002d0: 77e7 b63f 76f2 c53f bab7 65be 5e6e 8fbc
000002e0: 2b5d b13c d455 21c1 d07c 94bf fa20 5dbd
000002f0: 5e20 68be 91a7 193f d623 2a3f bd30 ca3d
00000300: e33e 933f 626b cc3f 6493 07bf c388 cc3d
00000310: 2a5c a83d 7de9 2cc1 017b 9bbf 6493 e93d
00000320: c8cc 12be 6fdd 913e e70b 1c3f 775b 923e
00000330: 4a0c 1c40 d8f1 ca3f c352 08bf be79 c93c
00000340: 00f0 0d3f 5c8c 44c0 6222 95bf 18ac fbbe
00000350: b72b aa3c e6f9 fd3d d184 783d 1890 3c3e
00000360: 86ac b63f af05 b93f e329 89bf d874 64be
00000370: 20c0 4fbe 3883 35c1 bd0d 12c0 3acd c6be
00000380: 0702 b3be d2be 163f 0886 443f ffde b2be
00000390: 4f77 d93f bc7d 4d3f e561 8cbd 0a33 be3e
000003a0: c8fe 893e 1dcf 1bc1 317d 8cbf 4cf8 b23e
000003b0: d301 433d 2dc0 cb3e ab09 de3e 16ae f13e
000003c0: 306c c53c 98cb 8a3e 1f6d 0fbe fc5d 73be
000003d0: fafa 59be d02f d63c f003 26bd 485a 3ebe
000003e0: c653 843e e9b2 1dbe 94f5 9cbd 4afc 4f3e
000003f0: 25cd be3f 9b46 b93f aa36 6bbf 5152 3e3e
2.0702512 1.3214421 -0.88389486 -0.16587168 0.50478685 -4.1711335 -1.2397362 0.1535194
0.17005208 0.09556941 0.18894532 0.29113877 1.8891644 1.0130246 -0.80401963 0.45949617
0.33547541 -7.9084063 -1.3149348 -0.20145413 0.08105785 0.32866243 -0.016116649 -0.19138278
1.1156586 2.032911 -1.2106574 0.047846813 0.00056402927 -11.887686 -0.98717296 -0.49733195
-0.29039526 0.6190829 0.79184717 -0.16827273 2.6871586 0.85451174 -0.21309495 0.14872526
0.2842569 -7.4703555 -1.5300375 -0.36264572 -0.25335935 0.020058038 -0.13975053 -0.1979259
1.9917449 0.7881806 0.22337458 0.5299122 0.48482767 -8.448382 -0.89747214 0.40066448
-0.35081774 0.96958804 0.48151705 0.12812749 0.970888 1.9283876 -1.1051137 0.24676813
-0.058518417 -10.844353 -1.7366475 -0.2443321 -0.21482304 0.14999035 0.8438863 -0.026558645
3.299384 0.5691623 -0.64961636 0.10989429 0.12751059 -2.2044852 -1.7748498 -0.07242205
0.77143973 -0.18431757 -0.33654067 0.9000829 0.7171704 1.9062684 -1.0072381 0.05131625
-0.12004849 -11.762525 -0.96843666 -0.37090743 0.1644013 0.35493654 0.6889867 -0.1267209
1.8671757 1.1622584 -0.41216514 0.35302868 0.02404446 -9.717922 -1.8057388 -0.09582144
0.07498041 0.5047743 0.10459061 0.38358325 1.219599 1.5255502 -0.8761818 -0.056556117
0.021144252 -10.935604 -1.00691 -0.08123841 0.16941921 0.14431022 0.7222149 0.30174574
2.7624724 0.63762236 -0.9880067 0.1882687 0.19611613 -3.0893536 -2.1623034 -0.11706679
0.4905058 -0.0017291011 0.01576672 0.36969703 2.2465043 0.74168843 -0.5871962 0.21668395
0.102084786 -9.622303 -2.074306 0.017132197 -0.08816691 0.3949587 0.09340029 0.17001544
1.5227774 1.9427587 -1.2115321 -0.20625632 0.05594916 -11.276547 -1.8752147 -0.51167035
-0.2867294 0.49714503 0.8041694 -0.4244421 2.0825858 1.0027124 -0.22908692 0.29708508
0.18183373 -10.314944 -2.5576558 -0.01665927 -0.10202504 0.49999565 0.14344989 0.3431673
0.4634932 1.6599518 -1.2588295 0.2469449 0.10819526 -11.893621 -0.926299 -0.7262294
-0.05014978 0.7425396 0.71527725 0.010260009 1.4289387 1.5464618 -0.22433367 -0.017508682
0.021650871 -10.083454 -1.160059 -0.053986527 -0.22668597 0.6002131 0.6646093 0.09872577
1.1503567 1.5970271 -0.52959275 0.09987023 0.08220704 -10.807004 -1.2146913 0.11405066
-0.1433593 0.28489253 0.6095566 0.28585407 2.43825 1.5855055 -0.53251284 0.024594184
0.55444336 -3.0710669 -1.1651118 -0.49154735 0.020772798 0.1240118 0.06067354 0.18414342
1.42714 1.445486 -1.0715908 -0.22310197 -0.20288134 -11.344536 -2.2820885 -0.3882845
-0.34962484 0.5888492 0.76767015 -0.34935758 1.6989535 0.8026998 -0.068546094 0.37148315
0.26952195 -9.738065 -1.0975705 0.3495506 0.04760916 0.39795056 0.4336675 0.4720313
0.02409944 0.27108455 -0.1400647 -0.23766321 -0.21287146 0.026145846 -0.0405311 -0.18589127
0.25845164 -0.1540028 -0.07664028 0.20311084 1.4906355 1.4474672 -0.91880286 0.18586089

model.0.bias f4 [64]
00000000: ae98 a3bf c9d2 70bf 252a 90bf c85b 7bbf
00000010: cb14 be3e 6fc2 4ebf b126 84bf 26e7 30bf
00000020: c2ba fabe 531b 0abf 50ac 84bf ba03 85bf
00000030: c104 95bf 379e 51bf 3d5d 28bf 06b1 b9be
00000040: 733a 2cbf b58f 9ebf 23bc 57bf 99fe 253e
00000050: fc83 38be 742a 99bf ae52 81bf 047f 71bf
00000060: 46f6 a5bf 8434 2bbf f777 2fbf fba0 153f
00000070: 3256 5cbe 7e71 31bf 011a 3fbf a0f1 55be
00000080: 5327 5abf bea0 68bf 70d1 72bf 02db 16bf
00000090: a9de a23d 08da 06bf 95c2 5abf 3732 ecbe
000000a0: ed7e bebf 8152 8fbf 7d7a 3dbf c9a1 acbf
000000b0: 64f3 f2bd 293a 1fbf 3f47 0f3c abc3 f0be
000000c0: 0765 97be 9f82 0840 944b 61bf e47d 503e
000000d0: 4a32 003d b4ba 7bbf a83c 9cbf b741 63bf
000000e0: 2a8d 82be 0a8e bdbe 82a3 65be 3cf4 77bf
000000f0: 4051 e8bd 82c8 8cbe b9f2 2fbf c286 93bf
-1.2780969 -0.9407163 -1.1262861 -0.9818692 0.3712524 -0.8076543 -1.0324308 -0.69102705
-0.4897061 -0.53947943 -1.0365086 -1.0391762 -1.1642076 -0.8188204 -0.6576727 -0.3626787
-0.67276686 -1.2387606 -0.8427145 0.16210403 -0.18019098 -1.1966081 -1.0103357 -0.94334435
-1.2965782 -0.6687701 -0.68542427 0.5844876 -0.21517256 -0.693138 -0.74649054 -0.20892954
-0.85216254 -0.90870273 -0.94850826 -0.5892793 0.07952625 -0.5267644 -0.8545316 -0.4613206
-1.4882485 -1.1197053 -0.7401503 -1.3486873 -0.11862829 -0.6219812 0.008745014 -0.47024283
-0.29569265 2.1329725 -0.8800595 0.20360523 0.03129796 -0.9833176 -1.2206011 -0.8877215
-0.25498325 -0.3702243 -0.22425655 -0.9685705 -0.11343622 -0.27496725 -0.6872974 -1.15255

model.2.weight f4 [32, 64]
00000000: 7eb9 03be 3c4d a73d 5433 33bc a066 e0bd
00000010: 237b febd bcb0 4c3d b3f1 2c3d e625 d73d
00000020: 89b6 7a3d ddb8 173d 0465 5abd 1202 0ebe
00000030: ab85 4fbd c1d8 0abd 66be 28bd f9bc 5d3d
00000040: 8bb3 6b3d 2918 683d 68bf 033d abfd f9bd
00000050: 4805 f93c 9a6d 8a3d a075 4ebc 7df6 d83d
00000060: 2613 d5bc ef35 a1bd 7095 883d 3d3a 62ba
00000070: b061 aebd 5911 89bd 508e 7cbd 9a2f b83d
00000080: baf9 06be d30a a939 04b5 6ebc 4d65 593d
00000090: 9cf2 363c 2044 11bd 185c a83c 635c e1bd
000000a0: 0c9f f6bd 9bcc 7dbc d015 95bd 2319 043c
000000b0: c78f 313d 2696 ecbd 5762 383b a8f2 0a3d
000000c0: 593a d23c 0ec5 c0bd 4a46 6e3c 7b21 08be
000000d0: ab7a 06be 5b28 0bbe f55d ba3d 62f7 5f3d
000000e0: ac89 f23d 1eb8 8739 5ac7 c73d b3ba b03c
000000f0: c279 e23d 422c c1bd f198 d93d 4887 04be
00000100: 703c 1ec0 1307 7ebf 7093 d6be 52c8 debe
00000110: 15d3 833f dc53 acbf 527a 38c0 968e c6be
00000120: f799 c0bd bdb9 3fbe 8277 fcbf 4a7d e7be
00000130: b01e 8cbf bd70 45be b5ee 523e 17c7 da3e
00000140: bbc8 f5bd 5028 1ac0 a65f 4a3e 05bd 593f
00000150: 2cfe eebd d3ea 42c0 319f 46bf d47b 9fbf
00000160: fb26 d9bf 6e54 6fbd d5e1 94bd b0c6 893f
00000170: 97f0 ec3d d2b3 513f ea67 34bf ae8c 523f
00000180: 2d24 6dbf 591a edbf 95b8 0cbf 0154 f83d
00000190: 1c5a 4f3f 7a7a 84be 5919 67bf 5f8d 523e
000001a0: f645 2ec0 200f 47bf fc83 1dbf df09 86c0
000001b0: 1ced df3d 5b8a 2e3d a9c9 1c3f 784f 7c3e
000001c0: 4c76 a83e bf1d 2140 669f cfbf 7919 873f
000001d0: 6cb5 6a3f 79c7 66bf c0c4 74c0 e94a 25bd
000001e0: 1c5c efbd c79b 5cbd b076 96bd 354c 82bf
000001f0: c288 cd3d 10f0 033d 86d8 1ebf 3414 7dbf
00000200: abef c4bc 646e 4a3d 3848 963c e5ce 2f3d
00000210: 43c5 cabc 77df d33d 06e2 eebd aaf9 52bc
00000220: 8243 ed3c 3e3a 98bc cddf b93c 5854 0cbe
00000230: 5859 4f3d 2c2e 43bd 8004 7c3c 629e db3d
00000240: 78bd 583c 748e 7b3d d8ff e93c 2965 273d
00000250: c0e8 2bbd 20e1 dabc c49f c2bd 2038 503c
00000260: 3453 09be e744 9abc a05a 85bc 0135 79bc
00000270: a9a8 cdbd 009f 4c3b b0f0 cfbd a297 09be
00000280: e241 e7bd 90cc 48bd f4e6 a93c 8ae2 b53d
00000290: b6ae d83d d673 fd3d 6cc8 2d3d 4751 a93c
000002a0: 4667 823d 2fd4 abbd 8c56 ffbc b2ee f73d
000002b0: 2696 8dbd a49e 7abd 414c dcbd df27 5abd
000002c0: f123 833c c833 07bd e119 aebd 7448 983d
000002d0: 61ee 4cbd 588a d23c 1bde 243d 748f e0bd
000002e0: 94ad 31bd 5bd1 0dbe 9068 d4bd 7861 eabd
000002f0: b0e9 28bd 1817 f03d 6202 47bd 1c2b 5cbd
00000300: d24d 1b3b 3446 bb3d e419 71bd 8360 12be
00000310: 52ae b93d f94b 04be b8a7 013c 252e b13d
00000320: 01b5 d6bd 7cdd f0bb b9ee 8ebc ebb2 7bbd
00000330: 86c1 cebc d161 84bd 3631 ac3d c128 613c
00000340: 12fe c2bd 0e4e 05bd 71ab ccbd eb69 94bd
00000350: a410 39bd ce00 b53d 1576 58bd 70b1 8f3d
00000360: b7ab ddbd 2398 d8bd ca3a e43c 622f 153c
00000370: fd9e ca3c 0740 013c 7539 b23d 42b5 dfbc
00000380: 7daf 623d 357b febb 9492 38bd c107 6a3c
00000390: 9ccf 0fbe 7999 2bbd 2690 a93c 62c4 da3c
000003a0: d34a 97bc d013 523d e250 59ba 9290 e13c
000003b0: 05e1 7a3c dbc0 933b d0cb 55bd 3470 73bd
000003c0: 6af0 39bd 185f dcbd 947e 9cbc 8160 c43d
000003d0: c441 acbc fe71 d9bc e154 00bd bebf d2bd
000003e0: e83d 823c 6ee2 cdbd 9080 653d fe10 9e3d
000003f0: de38 e7bd 16b9 de3d 691d 4e3d 4159 d13b
-0.12863728 0.08169028 -0.010937531 -0.10957074 -0.1242583 0.049973235 0.04222269 0.105052754
0.061209235 0.037041534 -0.053318992 -0.13867977 -0.050664585 -0.03389812 -0.041197203 0.054135296
0.057544272 0.056663666 0.03216496 -0.122065865 0.030398026 0.06759186 -0.012601286 0.10593889
-0.026010107 -0.07871615 0.06669128 -0.0008629894 -0.08514726 -0.06692762 -0.061659157 0.08993454
-0.131812 0.00032242257 -0.014569525 0.053075124 0.011166241 -0.03546536 0.020551726 -0.110039495
-0.120420545 -0.015490676 -0.07279551 0.008062634 0.043350007 -0.11552076 0.0028134787 0.03392282
0.025662588 -0.09412585 0.014543125 -0.13294022 -0.13132732 -0.13589613 0.09099952 0.054679282
0.11842665 0.00025886385 0.0975482 0.0215734 0.1105838 -0.0943227 0.106248744 -0.1294223
-2.4724388 -0.99229544 -0.4190936 -0.43512207 1.0298792 -1.3463092 -2.8824658 -0.3878066
-0.094043665 -0.18723197 -1.9723971 -0.45212775 -1.0946865 -0.19281287 0.20598872 0.42730018
-0.12001177 -2.4087105 0.1976305 0.85054046 -0.11669573 -3.0455825 -0.77586657 -1.2459664
-1.6965021 -0.058430128 -0.072696365 1.076376 0.11569326 0.8191501 -0.7047106 0.8224591
-0.92633325 -1.8523666 -0.5496915 0.121253975 0.8099687 -0.25874692 -0.9027305 0.20561741
-2.72302 -0.77757454 -0.6152952 -4.188705 0.10933897 0.042612415 0.6124521 0.2463969
0.32902753 2.5174406 -1.622052 1.0554649 0.9168308 -0.9014812 -3.8245087 -0.040354643
-0.1168749 -0.0538595 -0.073468566 -1.0179507 0.1003585 0.032211363 -0.6204914 -0.9885895
-0.024040064 0.049421683 0.018344983 0.04292192 -0.024752265 0.10345357 -0.11664204 -0.012876907
0.028962854 -0.01858246 0.022689724 -0.1370405 0.050622314 -0.047651455 0.015381932 0.107235685
0.013228767 0.06141515 0.028564379 0.04086796 -0.041970015 -0.026718676 -0.09503129 0.012708694
-0.13410646 -0.018831683 -0.016278565 -0.015210391 -0.10041935 0.00312227 -0.10153329 -0.1343675
-0.11291863 -0.04902321 0.02074001 0.088810995 0.105801985 0.123756096 0.042427465 0.020668639
0.06367354 -0.0839008 -0.031169198 0.121060744 -0.06913404 -0.061186448 -0.10756732 -0.05326068
0.01600835 -0.033008367 -0.0850103 0.07435694 -0.050032023 0.025700733 0.04025088 -0.109648615
-0.043378428 -0.13849394 -0.10371506 -0.11444372 -0.041238487 0.11723155 -0.048586257 -0.05375205
0.0023697508 0.091442496 -0.05886258 -0.14294629 0.09066452 -0.12919606 0.007913522 0.086513795
-0.104837425 -0.0073506217 -0.017447816 -0.061449926 -0.025238764 -0.064639695 0.08407824 0.013742627
-0.09521116 -0.032545142 -0.09993637 -0.07246765 -0.045181885 0.08838044 -0.052846987 0.070162654
-0.10823768 -0.10575893 0.027860064 0.009105535 0.024734015 0.0078888 0.08702365 -0.02730811
0.05534314 -0.0077661523 -0.045061663 0.014284075 -0.1404404 -0.04189441 0.020698618 0.02670497
-0.018468296 0.051288426 -0.00082899455 0.027534757 0.015312438 0.004509074 -0.052196324 -0.059433177
-0.045395292 -0.10760325 -0.019103326 0.09588719 -0.021027453 -0.026543614 -0.031330947 -0.10290478
0.01589866 -0.10052954 0.05603081 0.07718085 -0.112901434 0.10875146 0.050321016 0.0063888137

model.2.bias f4 [32]
00000000: cfcb 1b3c ac3e 1640 00fc c9b9 18c5 f2bc
00000010: 970b 00bf 2556 c63f 6fb5 f1be 4056 59bc
00000020: eb91 083f 4fd1 da3f 1213 01bf 6aaa 0c40
00000030: 700e c93c af5e 7a3c 6ca4 c3be 979a 143d
00000040: b610 0abf e858 0dbd d2f2 c53e df87 993d
00000050: 8018 05bd 8286 293d af7f 433d 4079 d2be
00000060: 6265 ccbe 941a 2dbd d79f c3be 465f f3ba
00000070: e53c c8be 9b89 afbe 2735 1340 7971 de3f
0.009509041 2.3475752 -0.00038525462 -0.029634997 -0.50017685 1.5495039 -0.47208735 -0.0132651925
0.53347653 1.7095126 -0.50419724 2.1979012 0.024543017 0.015281363 -0.3821138 0.03628024
-0.5393175 -0.034508616 0.3866182 0.074966185 -0.03249407 0.041388042 0.04772919 -0.4110813
-0.399211 -0.042261675 -0.38207886 -0.0018567822 -0.3910896 -0.34284672 2.3001192 1.7378379

model.4.weight f4 [1, 32]
00000000: cc4f 50bd 5bc0 9640 c715 1abe 1bc2 f6bd
00000010: 5080 af3f 780b 97c0 b3cf ac3f 258e e3bd
00000020: c210 2440 a9c8 9ac0 3cf8 a73f d94e 9440
00000030: 7982 5fbd c467 25be 4d2c b23f 2b9b 3fbd
00000040: 79c1 af3f c361 f8bc ae68 75c0 6b42 8cbd
00000050: 0f44 90bd 2524 d4bb 063d 37bb 5014 b43f
00000060: ba65 b23f 60e3 753c 69e9 a93f eb78 4bbd
00000070: 9410 a83f f097 a73f f0dc 9d40 6022 a1c0
-0.05085735 4.710981 -0.1504737 -0.120487414 1.3711033 -4.72015 1.3500885 -0.11111096
2.5635228 -4.8369946 1.312263 4.634625 -0.054567788 -0.16152865 1.391977 -0.04677884
1.3730918 -0.030320054 -3.8345141 -0.06848606 -0.07044231 -0.0064740353 -0.0027959957 1.4068699
1.3937294 0.015007824 1.3274356 -0.049675863 1.3130059 1.3093243 4.93322 -5.035446
